…
]}\n{'input_ids': [1, 273, 481, 619, 300, 2], 'token_type_ids': [0, 0, 0, 0, 0, 0], 'attention_mask': [1, 1, 1, 1, 1, 1]}\n{'input_ids': [1, 1, 273, 481, 619, 300, 2], 'token_type_ids': [0, 0, 0, 0, 0, 0, 0], 'attention_mask': [1, 1, 1, 1, 1, 1, 1]}\n\n\n\n# Note: Tokenizer adds a starting token [CLS] and end of sentence token on its own\n\n\nCheck Model Architecture\n\nbase_model = AutoModel.from_pretrained(cnfg.base_model_name, config=model_config)\nbase_model.requires_grad_(False)  # Freeze the pretrained weights\n\nDebertaV2Model(\n  (embeddings): DebertaV2Embeddings(\n    (word_embeddings): Embedding(128100, 1024, padding_idx=0)\n    (LayerNorm): LayerNorm((1024,), eps=1e-07, elementwise_affine=True)\n    (dropout): StableDropout()\n  )\n  (encoder): DebertaV2Encoder(\n    (layer): ModuleList(\n      (0-23): 24 x DebertaV2Layer(\n        (attention): DebertaV2Attention(\n          (self): DisentangledSelfAttention(\n            (query_proj): Linear(in_features=1024, out_features=1024, bias=True)\n            (key_proj): Linear(in_features=1024, out_features=1024, bias=True)\n            (value_proj): Linear(in_features=1024, out_features=1024, bias=True)\n            (pos_dropout): StableDropout()\n            (dropout): StableDropout()\n          )\n          (output): DebertaV2SelfOutput(\n            (dense): Linear(in_features=1024, out_features=1024, bias=True)\n            (LayerNorm): LayerNorm((1024,), eps=1e-07, elementwise_affine=True)\n            (dropout): StableDropout()\n          )\n        )\n        (intermediate): DebertaV2Intermediate(\n          (dense): Linear(in_features=1024, out_features=4096, bias=True)\n          (intermediate_act_fn): GELUActivation()\n        )\n        (output): DebertaV2Output(\n          (dense): Linear(in_features=4096, out_features=1024, bias=True)\n          (LayerNorm): LayerNorm((1024,), eps=1e-07, elementwise_affine=True)\n          (dropout): StableDropout()\n        )\n      )\n    )\n    (rel_embeddings): Embedding(512, 1024)\n    (LayerNorm): LayerNorm((1024,), eps=1e-07, elementwise_affine=True)\n  )\n)\n\n\n\n# base_model\n\n\ndf_train = pd.read_csv(\n    f\"{cnfg.train_path}\",\n    delimiter=\"\\t\",\n    header=None,\n    names=[\"sentence_source\", \"label\", \"label_notes\", \"sentence\"],\n)\ntrain_dataloader = get_train_data_loader(cnfg, df_train)\ntrain_dataloader_iterator = iter(train_dataloader)\nX, X2, Y = next(train_dataloader_iter
…
m_classes),\n        )\n\n    def forward(self, input_ids, attention_mask):\n        base_embeddings = self.base_model(\n            input_ids=input_ids, attention_mask=attention_mask\n        )\n        cls_embedding = base_embeddings.last_hidden_state[:, 0:1, :].flatten(\n            start_dim=1\n        )  # Taking embeddings of [CLS] token\n\n        logits = self.classifier(cls_embedding)\n\n        return logits\n\n\n\nmy_model = EnDeBertaClassifier(cnfg)\n\n\nmy_model\n\nEnDeBertaClassifier(\n  (base_model): DebertaV2Model(\n    (embeddings): DebertaV2Embeddings(\n      (word_embeddings): Embedding(128100, 1024, padding_idx=0)\n      (LayerNorm): LayerNorm((1024,), eps=1e-07, elementwise_affine=True)\n      (dropout): StableDropout()\n    )\n    (encoder): DebertaV2Encoder(\n      (layer): ModuleList(\n        (0-23): 24 x DebertaV2Layer(\n          (attention): DebertaV2Attention(\n            (self): DisentangledSelfAttention(\n              (query_proj): Linear(in_features=1024, out_features=1024, bias=True)\n              (key_proj): Linear(in_features=1024, out_features=1024, bias=True)\n              (value_proj): Linear(in_features=1024, out_features=1024, bias=True)\n              (pos_dropout): StableDropout()\n              (dropout): StableDropout()\n            )\n            (output): DebertaV2SelfOutput(\n              (dense): Linear(in_features=1024, out_features=1024, bias=True)\n              (LayerNorm): LayerNorm((1024,), eps=1e-07, elementwise_affine=True)\n              (dropout): StableDropout()\n            )\n          )\n          (intermediate): DebertaV2Intermediate(\n            (dense): Linear(in_features=1024, out_features=4096, bias=True)\n            (intermediate_act_fn): GELUActivation()\n          )\n          (output): DebertaV2Output(\n            (dense): Linear(in_features=4096, out_features=1024, bias=True)\n            (LayerNorm): LayerNorm((1024,), eps=1e-07, elementwise_affine=True)\n            (dropout): StableDropout()\n          )\n        )\n      )\n      (rel_embeddings): Embedding(512, 1024)\n      (LayerNorm): LayerNorm((1024,), eps=1e-07, elementwise_affine=True)\n    )\n  )\n  (classifier): Sequential(\n    (0): Linear(in_features=1024, out_features=1024, bias=True)\n    (1): ReLU()\n    (2): Dropout(p=0.1, inplace=False)\n    (3): Linear(in_features=1024, out_features=128, bias=True)\n    (4): ReLU()\n    (5): Dropout(p=0.1, inplace=False)\n    (6): Linear(in_features=128, out_features=2, bias=True)\n  )\n)\n\n\n\nlogits = my_model(input_ids=X, attention_mask=X2)\n\n\nlogits.shape\n\ntorch.Size([8, 2])\n\n\n\nlogits\n\ntensor([[-0.0836,  0.0493],\n        [-0.0009,  0.0343],\n        [-0.0101,  0.0113],\n        [ 0.0093, -0.0483],\n        [-0.0530,  0.0029],\n        [ 0.0071,  0.0551],\n        [-0.0255,  0.0247],\n        [-0.0515,  0.0383]], grad_fn=&lt;AddmmBackward0&gt;)",
…
